backend/models/domain_predictor_v2.pth (torch, 49275 bytes, 14 tensors)

model.0.weight f4 [128, 7]
0	0x3c98789a	0.018612195
1	0x3eca8266	0.3955261
2	0x3b42bd60	0.0029714927
3	0x3c33b969	0.010969498
4	0xbd8ca3bc	-0.06867167
5	0x3e10f5d5	0.14156277
6	0x3e649576	0.2232264
7	0xbde59de4	-0.11211756
8	0x3e972dde	0.2952718
9	0xbd198151	-0.03747684
10	0xbe5c18f4	-0.21493894
11	0x3ea2daa9	0.3180745
12	0x3d84349b	0.06455346
13	0xbd580e45	-0.052747983
14	0x3ea0f09b	0.31433567
15	0xbdc1fff7	-0.094726495
16	0x3e9f1bc2	0.31075865
17	0xbd7dc4b4	-0.06195517
18	0x3eb057b8	0.34441924
19	0x3d6d4c90	0.057934344
20	0xbe873ed1	-0.26415113
21	0xbe66fe84	-0.22558028
22	0x3d965fc7	0.07342487
23	0xbd021989	-0.031762633
24	0xbe473729	-0.19454636
25	0xbe91dfd5	-0.28491083
26	0xbe2ef32d	-0.17084952
27	0x3e2cf012	0.16888455
28	0xbe563a27	-0.20920621
29	0x3eec1f01	0.46117404
30	0xbcba31c3	-0.022728806
31	0xbe2a163a	-0.16610041
32	0x3ea54517	0.32279274
33	0xbcd6e54a	-0.02623238
34	0x3e355ec9	0.17711939
35	0x3eb68740	0.35650063
36	0x3e8643da	0.26223642
37	0x3e925592	0.2858091
38	0x3db48eeb	0.08816322
39	0xbdd3bb7f	-0.103384964
40	0x3df4d50f	0.119547
41	0x3d4eec2a	0.050518192
42	0xbe1c7c30	-0.15281749
43	0xbcd49d6b	-0.025953969
44	0x3d364d95	0.04450758
45	0x3b2c330a	0.002627554
46	0xbeca8583	-0.39554986
47	0x3d5a5caa	0.053311028
48	0xbded6510	-0.11591542
49	0xbe0bac24	-0.13639885
50	0x3e93df78	0.2888143
51	0xbe6589bf	-0.22415827
52	0xbe9f44e7	-0.31107256
53	0x3ec22678	0.37919974
54	0x3e9fffbd	0.312498
55	0xbe8569f8	-0.2605741
56	0x3eb78550	0.35843897
57	0xbe9be43b	-0.30447564
58	0xbd4e53d4	-0.050372913
59	0x3d1a9bf8	0.0377464
60	0x3da15f0d	0.078794576
61	0x3da57494	0.08078876
62	0x3c9ad0b4	0.018898346
63	0x3dbe0c50	0.09279692
64	0x3bbb588d	0.005717343
65	0x3db64424	0.088997155
66	0xbc077734	-0.008268166
67	0xbe93191e	-0.287301
68	0xbc791731	-0.015203283
69	0x3e27a576	0.16371712
70	0x3e301647	0.17195998
71	0x3e8c0dfd	0.27354422
72	0x3e783fb4	0.24243051
73	0xbe817eae	-0.2529196
74	0xbea3daaa	-0.32002765
75	0xbc4ef760	-0.012632221
76	0xbe938cc3	-0.2881833
77	0x3e867b74	0.26266062
78	0x3e4b203c	0.19836515
79	0x3e4b01b7	0.19824873
80	0x3cc0b2de	0.02352279
81	0xbec0cf73	-0.3765827
82	0x3ea24e3d	0.31700316
83	0x3eb1a805	0.346985
84	0x3caa9a2c	0.020825468
85	0x3e8d0839	0.27545336
86	0xbe992152	-0.29908234
87	0xbda26e4a	-0.07931192
88	0xbe360b90	-0.17777848
89	0xbea63cea	-0.3246835
90	0xbe7f8c9f	-0.24955986
91	0xbe39b2d6	-0.18134627
92	0xbea948f8	-0.33063483
93	0x3e64e296	0.2235206
94	0x3db03f96	0.08605878
95	0x3c452b5e	0.012034265
96	0x3e8964f3	0.2683483
97	0x3e08929b	0.13337176
98	0x3dfe628c	0.1242114
99	0x3ed329f3	0.41242942
100	0xbe4fef53	-0.20306139
101	0xbe0b3673	-0.1359499
102	0x3e2531db	0.161323
103	0x3e862141	0.26197246
104	0x3e194e90	0.14971375
105	0xbe78de47	-0.24303542
106	0x3e3fa6d9	0.18715991
107	0xbcc9bbb9	-0.024625646
108	0xbe527c29	-0.20555176
109	0x3da967bc	0.08271739
110	0xbeb496d7	-0.35271332
111	0xbe153fc4	-0.14575106
112	0x3d85e3c4	0.065375835
113	0xbeb39d64	-0.35081017
114	0xbe6df180	-0.23236656
115	0x3da26f45	0.07931379
116	0xbdf511a0	-0.11966252
117	0x3e94aa9b	0.29036412
118	0x3cab3755	0.020900408
119	0xbcd123c8	-0.025529757
120	0xbd92acd6	-0.07161872
121	0x3e3b175b	0.18270628
122	0xbe7485ed	-0.23879214
123	0x3e28a72b	0.1647002
124	0x3ec42b7c	0.38314426
125	0x3eba895e	0.36432928
126	0x3eeda182	0.46412283
127	0xbdbf0877	-0.093277864
128	0x3cb959e0	0.022625864
129	0x3e6ab96a	0.22922292
130	0x3d7cb952	0.061700173
131	0x3e1c4596	0.1526092
132	0xbe48794d	-0.19577523
133	0xbe27ee11	-0.16399409
134	0xbea16e1c	-0.3152932
135	0x3dbca292	0.09210695
136	0x3e286085	0.1644307
137	0x3eacb274	0.337299
138	0x3e8c65aa	0.27421314
139	0x3c7b0990	0.015322104
140	0xbe4e9e98	-0.20177686
141	0x3e15ad77	0.14616953
142	0x3e5bf37e	0.21479604
143	0x3ea50bd4	0.32235587
144	0xbe7848c8	-0.24246514
145	0x3e9dc9d1	0.30818036
146	0xbe5e4f96	-0.21710047
147	0x3e49bc2d	0.1970069
148	0xbe1a34b7	-0.15059172
149	0x3e95805f	0.29199502
150	0x3e632e62	0.22185662
151	0xbe5ae030	-0.21374583
152	0xbe4f86d3	-0.20266275
153	0xbe8ffb2a	-0.2812131
154	0x3ea0361e	0.31291288
155	0xbdcfd320	-0.10147691
156	0xbe5bd9b7	-0.2146977
157	0xbdfae380	-0.122504234
158	0xbe9a3b94	-0.3012358
159	0xbec657b0	-0.38738775
160	0xbc1c2ca5	-0.009532128
161	0xbdda3fb7	-0.10656684
162	0x3e7d7fc9	0.24755777
163	0x3e9005e0	0.28129482
164	0x3e9f9088	0.31164956
165	0x3e848ea1	0.25890067
166	0x3e57f30e	0.21088812
167	0xbe78f37c	-0.24311632
168	0xbd2ac471	-0.041691247
169	0xbe9ce7c7	-0.30645582
170	0xbce1ab5b	-0.027547529
171	0xbe8bacc1	-0.27280238
172	0x3e937ff7	0.28808567
173	0x3eaa95e1	0.33317474
174	0xbd9a7e56	-0.07543628
175	0x3dc72c3b	0.09725233
176	0x3eae3042	0.34021193
177	0xbea7a017	-0.32739326
178	0x3e7d836c	0.24757165
179	0x393af53a	0.00017829696
180	0xbe521ec3	-0.20519547
181	0xbd89b900	-0.06724739
182	0xbe14126b	-0.14460151
183	0x3d8d8dda	0.06911822
184	0x3ea4c1ca	0.321791
185	0xbe44829e	-0.19190452
186	0x3bbdd13d	0.0057927654
187	0xbe803c52	-0.2504602
188	0xbe4ccde2	-0.20000413
189	0x3dd34f02	0.10317804
190	0xbd2b3f65	-0.041808505
191	0x3ee2b7c4	0.44280827
192	0x3e3bae30	0.18328166
193	0xbda4bc01	-0.080436714
194	0xbeab7dc7	-0.33494398
195	0xbdba5160	-0.09097552
196	0xbe17fdd6	-0.14842924
197	0xbe7548aa	-0.239535
198	0xbe6fde0b	-0.23424546
199	0xbebeaeae	-0.37242645
200	0x3e625878	0.2210406
201	0xb9c39d12	-0.00037310325
202	0xbe74d7da	-0.23910466
203	0xbe387543	-0.18013482
204	0x3e11ce5b	0.14238875
205	0xbe0f3f49	-0.13988985
206	0xbe84e289	-0.25954083
207	0x3e726823	0.23672538
208	0xbe6dd61b	-0.23226206
209	0x3e447fd9	0.19189395
210	0xbeb77438	-0.35830855
211	0x3e983c10	0.29733324
212	0xbe8790b6	-0.26477593
213	0xbe8366c5	-0.25664344
214	0x3c8d759f	0.017268
215	0x3dd2bb20	0.102895975
216	0xbedfdd06	-0.43723315
217	0xbd555666	-0.05208435
218	0xbec4bb43	-0.3842412
219	0x3e94187f	0.2892494
220	0xbe206c2e	-0.15666267
221	0xbea5f327	-0.32412073
222	0x3d63491c	0.055489644
223	0x3e7d5b2e	0.24741814
224	0xbeb94ed5	-0.36192957
225	0xbe4c60c1	-0.19958784
226	0xbe4c9452	-0.19978455
227	0xbde2ec0f	-0.11080181
228	0xbdf617ed	-0.12016282
229	0xbd8e3773	-0.0694417
230	0xbd97045c	-0.07373878
231	0xbe896693	-0.2683607
232	0x3edb917b	0.4288443
233	0xbde8e758	-0.1137225
234	0xbb831320	-0.0040000826
235	0xbe033e29	-0.12816681
236	0xbe5935e2	-0.21211961
237	0xbc6cde23	-0.014457258
238	0xbeb6bbd2	-0.3569017
239	0xbe653a95	-0.22385629
240	0xbcde0a28	-0.027104452
241	0xbdda5fb9	-0.10662789
242	0xbec26789	-0.37969616
243	0x3e457739	0.19283761
244	0x3b521ac8	0.003205942
245	0xbdf53585	-0.11973099
246	0x3e3fd286	0.18732652
247	0x3e97d033	0.2965103
248	0xbdce527a	-0.10074325
249	0xbeb05e9e	-0.34447187
250	0xbeb408b6	-0.35162896
251	0xbe98e504	-0.29862225
252	0xbdb9d34b	-0.09073504
253	0x3ea34a33	0.31892547
254	0x3e89985d	0.26874056
255	0x3e774e64	0.24150997

model.0.bias f4 [128]
0	0x34d29351	3.9222735e-07
1	0x3587614f	1.0086604e-06
2	0xb5d5858b	-1.5908603e-06
3	0x3607beca	2.0227621e-06
4	0xb578e224	-9.271628e-07
5	0xb4db88df	-4.0891516e-07
6	0x365f2ced	3.325574e-06
7	0xb5808986	-9.576768e-07
8	0x36029421	1.9457732e-06
9	0xb6870a49	-4.024511e-06
10	0xb537833d	-6.836379e-07
11	0xb20c0b94	-8.151705e-09
12	0xb5f658de	-1.8354292e-06
13	0xb5b80e51	-1.3713235e-06
14	0x35a5b885	1.234716e-06
15	0x3752e24e	1.2569666e-05
16	0x34eafa49	4.3768003e-07
17	0x370644aa	8.0030095e-06
18	0xb657d486	-3.2161201e-06
19	0xb2de381c	-2.5869717e-08
20	0x3590e23a	1.0794677e-06
21	0x35b00eb2	1.3117299e-06
22	0x355169da	7.80126e-07
23	0xb43dcbb9	-1.767611e-07
24	0xb66db0f0	-3.5418743e-06
25	0xb6b00281	-5.2455002e-06
26	0x3581fa5c	9.684113e-07
27	0x35897b86	1.0243245e-06
28	0xb5a23d2a	-1.2087742e-06
29	0xb574cf02	-9.119832e-07
30	0x361302ab	2.190626e-06
31	0xb62766cb	-2.4944773e-06
32	0xb6091538	-2.0426942e-06
33	0x35965aea	1.120233e-06
34	0xb6320afa	-2.6530456e-06
35	0xb624a26d	-2.4532449e-06
36	0xb584f33d	-9.905558e-07
37	0xb6084dd3	-2.031088e-06
38	0x35338893	6.688144e-07
39	0xb700b94e	-7.672539e-06
40	0x34ac12fd	3.2051312e-07
41	0xb5a44e12	-1.2241674e-06
42	0xb6c82ad3	-5.96545e-06
43	0xb5b545c7	-1.3505859e-06
44	0xb7021750	-7.754032e-06
45	0xb61de810	-2.3529901e-06
46	0x3659cdcf	3.2455316e-06
47	0x3529a6c5	6.320009e-07
48	0x3325d4d9	3.861064e-08
49	0x360ac02d	2.0675463e-06
50	0x37145692	8.841644e-06
51	0xb40e329a	-1.324319e-07
52	0xb63be456	-2.799808e-06
53	0xb6d88c37	-6.453625e-06
54	0xb518dc9b	-5.6945436e-07
55	0xb4872350	-2.5171403e-07
56	0xb67566b3	-3.6567624e-06
57	0x36099589	2.0501632e-06
58	0xb5d6ce20	-1.6004233e-06
59	0xb682ccf9	-3.898164e-06
60	0xb60238e3	-1.9404622e-06
61	0xb528abce	-6.2834886e-07
62	0x35c4e18e	1.4668783e-06
63	0xb2cf6396	-2.4143258e-08
64	0x36ac9e06	5.144396e-06
65	0xb6cff59b	-6.197673e-06
66	0xb6a44333	-4.895404e-06
67	0xb5b4255d	-1.3421919e-06
68	0x367c5e55	3.7605835e-06
69	0x369d24a0	4.6832283e-06
70	0x3708ba7e	8.149653e-06
71	0xb4e236b4	-4.2135582e-07
72	0xb6acde69	-5.1518914e-06
73	0x3524532c	6.121579e-07
74	0x35978f08	1.1292004e-06
75	0xb6284cb6	-2.5078602e-06
76	0xb63b01a6	-2.786613e-06
77	0x35fb2258	1.8710953e-06
78	0x36123b4e	2.1790215e-06
79	0xb64b05b8	-3.0252686e-06
80	0xb696b0db	-4.490937e-06
81	0x34122d82	1.3613865e-07
82	0xb46d84a8	-2.2120605e-07
83	0x371fab74	9.517058e-06
84	0x357a9c26	9.3359483e-07
85	0xb68c1191	-4.17437e-06
86	0x3619494f	2.2841448e-06
87	0x35c1fb24	1.4452712e-06
88	0x3599695b	1.1430051e-06
89	0xb627a90c	-2.4983337e-06
90	0x36129673	2.1843268e-06
91	0xb48a278a	-2.5733272e-07
92	0xb582be9f	-9.741233e-07
93	0xb70d9656	-8.439258e-06
94	0x36814dd5	3.8535604e-06
95	0xb7492068	-1.1988079e-05
96	0x3574b91b	9.116645e-07
97	0x356d453b	8.8390124e-07
98	0x361d8919	2.3474624e-06
99	0x33d648e1	9.978408e-08
100	0x36bf46ce	5.7004863e-06
101	0x346b5de9	2.1920245e-07
102	0xb5c1c83e	-1.4437899e-06
103	0x34cc439b	3.804715e-07
104	0xb628c196	-2.5146633e-06
105	0x3520650d	5.9751693e-07
106	0xb73150bc	-1.056882e-05
107	0xb65f2c46	-3.325536e-06
108	0x359b903d	1.1590379e-06
109	0x35c11a8e	1.4387349e-06
110	0x36279710	2.497287e-06
111	0x32968701	1.7523691e-08
112	0x35a3851e	1.2183189e-06
113	0x35e616ab	1.7142933e-06
114	0x36db6286	6.5381782e-06
115	0x34baadf9	3.4771782e-07
116	0x355baa72	8.183189e-07
117	0x34358db2	1.6908487e-07
118	0x36936c92	4.3935806e-06
119	0xb603148c	-1.953248e-06
120	0xb54d7eff	-7.6553255e-07
121	0xb58e47e9	-1.0600753e-06
122	0x344af2a4	1.8900988e-07
123	0xb6052e82	-1.9845615e-06
124	0xb68b1ff1	-4.1462413e-06
125	0xb5e7933f	-1.7253695e-06
126	0x358a241a	1.0292308e-06
127	0xb5d47d88	-1.5831765e-06

model.1.weight f4 [128]
0	0x3f81b792	1.0134146
1	0x3f78a348	0.9712415
2	0x3f7fc20b	0.9990546
3	0x3f778887	0.966927
4	0x3f81246a	1.0089238
5	0x3f758165	0.95900565
6	0x3f875674	1.0573258
7	0x3f748e0d	0.9552925
8	0x3f83ec18	1.0306425
9	0x3f73a02a	0.95166266
10	0x3f7b8a04	0.9825747
11	0x3f7ad948	0.97987795
12	0x3f7f472b	0.9971797
13	0x3f861a39	1.0476753
14	0x3f790fdc	0.97289824
15	0x3f834286	1.0254676
16	0x3f825deb	1.0184911
17	0x3f7dcf14	0.991441
18	0x3f7dbb2c	0.99113727
19	0x3f781920	0.9691334
20	0x3f6f013b	0.9336125
21	0x3f746487	0.9546589
22	0x3f7ddcbe	0.9916495
23	0x3f7c5ee4	0.9858229
24	0x3f7b2814	0.9810803
25	0x3f84208f	1.0322436
26	0x3f8138bb	1.0095438
27	0x3f7d5833	0.98962706
28	0x3f6be17b	0.9214093
29	0x3f6ba9b8	0.92055845
30	0x3f7d4c2d	0.9894436
31	0x3f72f52b	0.94905347
32	0x3f833cf0	1.0252972
33	0x3f86b28c	1.0523238
34	0x3f81a0d8	1.0127211
35	0x3f84fad1	1.0389043
36	0x3f824ea2	1.0180247
37	0x3f6e60dc	0.93116546
38	0x3f7c1524	0.9846976
39	0x3f75d110	0.9602213
40	0x3f6f6594	0.9351437
41	0x3f81cadf	1.0140036
42	0x3f768b51	0.9630633
43	0x3f7a8e00	0.97872925
44	0x3f78f344	0.97246194
45	0x3f702a4b	0.93814534
46	0x3f7d7513	0.99006766
47	0x3f74bcfe	0.9560088
48	0x3f7eb84e	0.99499977
49	0x3f8228fc	1.0168757
50	0x3f7e71aa	0.9939219
51	0x3f778183	0.96681994
52	0x3f751ee7	0.9575028
53	0x3f75a0b8	0.9594836
54	0x3f7876ac	0.9705608
55	0x3f77b08c	0.96753764
56	0x3f80cf82	1.0063326
57	0x3f7543fd	0.95806867
58	0x3f841541	1.0318986
59	0x3f83b226	1.0288742
60	0x3f77708b	0.966561
61	0x3f85997f	1.0437468
62	0x3f7ed6e9	0.99546677
63	0x3f82064a	1.0158169
64	0x3f78c4d6	0.9717535
65	0x3f7ede77	0.99558204
66	0x3f846368	1.0342836
67	0x3f750c82	0.9572221
68	0x3f70d885	0.9408038
69	0x3f872ed0	1.0561161
70	0x3f81a15d	1.0127369
71	0x3f70197b	0.9378888
72	0x3f7e5382	0.9934617
73	0x3f76caee	0.96403396
74	0x3f76dd33	0.96431273
75	0x3f77bf27	0.9677605
76	0x3f83ec36	1.0306461
77	0x3f6cf2a3	0.92557734
78	0x3f81ca37	1.0139836
79	0x3f7e3b18	0.9930892
80	0x3f80ab06	1.0052192
81	0x3f6eeb99	0.93328243
82	0x3f7e5a91	0.99356943
83	0x3f7d74ed	0.9900654
84	0x3f63bbe4	0.88958573
85	0x3f79ab66	0.9752716
86	0x3f7202d5	0.9453557
87	0x3f82f782	1.0231783
88	0x3f72dcb7	0.94868034
89	0x3f748fbd	0.9553183
90	0x3f87a8dd	1.0598408
91	0x3f736066	0.9506897
92	0x3f7ea130	0.994647
93	0x3f7d994a	0.99062026
94	0x3f8d171e	1.102268
95	0x3f7aca69	0.97965103
96	0x3f83b1eb	1.0288671
97	0x3f7503bc	0.95708823
98	0x3f829b8a	1.0203717
99	0x3f79bae7	0.97550815
100	0x3f82f9f0	1.0232525
101	0x3f7bf998	0.98427725
102	0x3f7fe464	0.9995787
103	0x3f70cdd2	0.94064057
104	0x3f8191bf	1.0122603
105	0x3f735638	0.95053434
106	0x3f817580	1.0113983
107	0x3f83bd75	1.0292193
108	0x3f70ea65	0.9410766
109	0x3f8062fa	1.0030205
110	0x3f79f1e4	0.9763472
111	0x3f7fb19f	0.99880403
112	0x3f81147a	1.0084374
113	0x3f80ae49	1.0053188
114	0x3f74f42c	0.95685077
115	0x3f7bd47c	0.983711
116	0x3f83dffd	1.0302731
117	0x3f7c05fc	0.9844663
118	0x3f752f6c	0.95775485
119	0x3f834e2a	1.0258229
120	0x3f821224	1.0161786
121	0x3f7c6df0	0.9860525
122	0x3f8359ad	1.0261742
123	0x3f7f0dfd	0.9963072
124	0x3f741fc4	0.9536097
125	0x3f8962b0	1.0733242
126	0x3f70de6a	0.94089377
127	0x3f7d5f50	0.9897356

model.1.bias f4 [128]
0	0x3d3a2db3	0.04545374
1	0xbd143a69	-0.036188517
2	0x3c13bbe6	0.009016966
3	0x3d19dd4f	0.037564572
4	0xbcd73387	-0.026269687
5	0x3c96f374	0.018426634
6	0x3d2bba8a	0.041925944
7	0xbd7b921e	-0.061418645
8	0x3dae9581	0.08524609
9	0xbc7f4190	-0.015579596
10	0x3b78a4a3	0.0037939928
11	0x3d8b8e2a	0.06814225
12	0x3ddad3bf	0.106849186
13	0x3d9392b0	0.07205713
14	0xbd81e7d1	-0.063430436
15	0x3cb24684	0.02176214
16	0x3d77d970	0.0605101
17	0x3dac0365	0.08399085
18	0x3d80efc3	0.06295731
19	0x3cd48306	0.025941383
20	0xbcd40dcf	-0.02588549
21	0x3c0d2c5f	0.008616536
22	0xbc9fd6d3	-0.019511616
23	0x3d8444ff	0.064584725
24	0x3c557734	0.0130289085
25	0xbcb9f2ba	-0.022698749
26	0x3d14ee82	0.03636027
27	0x3c9239fc	0.017849915
28	0xbce0ee3d	-0.02745735
29	0xbd8b961e	-0.06815742
30	0x3c91d5be	0.017802116
31	0xbd507185	-0.05088951
32	0x3c903804	0.017604835
33	0x3d2570fa	0.040390946
34	0x3d49ac47	0.049236562
35	0xbd833ccb	-0.0640808
36	0x3dd352b3	0.10318508
37	0xbd974eb2	-0.07388057
38	0x3bcba636	0.0062148822
39	0x3d1b09d0	0.037851155
40	0xbdb0f6c0	-0.08640814
41	0x3db8e159	0.09027357
42	0x3dcdef0b	0.100553595
43	0xb9b6f5e7	-0.00034896957
44	0x3d38aac5	0.045084734
45	0xbcda89c7	-0.026677025
46	0xbd481081	-0.048843864
47	0x3c53b2e4	0.012921069
48	0xbd428b6f	-0.047496255
49	0x3d727c86	0.059200786
50	0xbd4905d7	-0.049077835
51	0xbca16475	-0.019701222
52	0xbd21f006	-0.039535545
53	0xbd02660a	-0.031835593
54	0x3c2c5fa6	0.010520851
55	0x3d982cac	0.074303955
56	0xbb62faaf	-0.0034634282
57	0xbd3297c2	-0.04360176
58	0xbd0bb49d	-0.034107793
59	0x3c300b0d	0.010744822
60	0x3d32ae71	0.04362339
61	0x3d9c58eb	0.07634147
62	0x3d076dbd	0.03306364
63	0x3c8743d3	0.016511833
64	0xbdf7e3f9	-0.12104029
65	0x3d9bc5eb	0.07606109
66	0x3d5aeea0	0.053450227
67	0xbbc6bbe5	-0.0060648792
68	0xbd82adf0	-0.06380832
69	0xbd48681e	-0.04892742
70	0x3b9473bd	0.0045303986
71	0xbc82d2c2	-0.015969638
72	0x3da88454	0.082283646
73	0xbd5e7e07	-0.054319408
74	0x3c5b77dd	0.013395277
75	0x3ceb6541	0.028734805
76	0x3cfbb4bc	0.03072583
77	0xbd2aa939	-0.04166529
78	0x3dc0d871	0.09416283
79	0x3d97c316	0.074102566
80	0x3c9a5801	0.018840792
81	0xbd0a4238	-0.033754557
82	0x3cccd853	0.025005495
83	0xbdcaeb38	-0.09908146
84	0x3c91ba04	0.017788894
85	0x3d34dae9	0.04415408
86	0xbd8c0513	-0.06836905
87	0x3dae034a	0.08496721
88	0x3bb168f7	0.005414124
89	0x3d8e8893	0.06959643
90	0x3d9cace1	0.076501615
91	0xbcd970a6	-0.026542973
92	0x3c9a9528	0.018869951
93	0x3de4bcdc	0.111688346
94	0x3d4d889b	0.050179105
95	0xbd8ac054	-0.06774965
96	0x3d2c1084	0.042007938
97	0xbd076d03	-0.033062946
98	0x3c461292	0.012089388
99	0xbcd63707	-0.026149286
100	0x3b991a0a	0.0046722936
101	0x3c87d820	0.016582549
102	0xbc9c03fe	-0.019044872
103	0xbcd86253	-0.026414072
104	0x3d6e89b8	0.058236808
105	0xbca5b388	-0.020227209
106	0x3d409f0e	0.047026686
107	0xbd8e3c19	-0.069450565
108	0x3d35c672	0.044378705
109	0xbd586afd	-0.052836407
110	0x3bb0798f	0.0053855847
111	0x3d59afcf	0.05314618
112	0x3c8c0944	0.017094262
113	0xbd3595cc	-0.04433231
114	0x3d522020	0.051300168
115	0xbcfac2a0	-0.030610383
116	0xbcba7f67	-0.022765828
117	0xbc9e81ed	-0.019349063
118	0x3c7d2176	0.015449872
119	0xbc125172	-0.008930551
120	0x3d6423b8	0.055698127
121	0xbd1b22c9	-0.03787497
122	0x3a8f84bc	0.0010949592
123	0xbce4176d	-0.027843202
124	0xbccc12cc	-0.024911307
125	0x3d347157	0.0440534
126	0x3cd945ae	0.026522484
127	0x3c90972d	0.017650211

model.1.running_mean f4 [128]
0	0xbc10939f	-0.008824258
1	0xbc21ee11	-0.00988342
2	0x3b40bc7e	0.0029409225
3	0x3bafefe0	0.0053691715
4	0xbbf8f8ce	-0.007598019
5	0xbabc400f	-0.0014362353
6	0xbbbec9bc	-0.0058223885
7	0xbcc27938	-0.023739442
8	0x3c1329cb	0.008982132
9	0x3bb93713	0.0056523173
10	0xbb658fee	-0.0035028416
11	0xbb7a53e9	-0.0038196987
12	0x3aa874b4	0.0012852163
13	0xbb5866dd	-0.0033020296
14	0xbc600a46	-0.013674324
15	0x3b8632a5	0.004095393
16	0xbb93fc6d	-0.0045161755
17	0xbb825a9c	-0.0039780866
18	0xba97180c	-0.0011527552
19	0xbbed2ee1	-0.0072382544
20	0xbcb7ccf8	-0.022436604
21	0x3c1c3706	0.009534603
22	0x3cad3f83	0.021148449
23	0xbc9e54c0	-0.019327521
24	0xbbdd830e	-0.0067600077
25	0xbb2c01d5	-0.002624621
26	0x3bb85e27	0.005626458
27	0x3c79f322	0.015255721
28	0xba80ed0c	-0.000983627
29	0x3be84ad6	0.0070889993
30	0xbcc10cb8	-0.023565635
31	0x3c491b4a	0.012274573
32	0xbacb1c2b	-0.0015496066
33	0xbbc8b0a7	-0.006124574
34	0xbc052d5f	-0.008128493
35	0x3ba6addd	0.005086644
36	0x3b4eaba5	0.0031535414
37	0x3c81a92f	0.015827743
38	0xbb547eed	-0.0032424286
39	0x3bd54eb6	0.006509627
40	0x3c9012a2	0.01758701
41	0xbbcce219	-0.006252539
42	0x39f963ba	0.00047567283
43	0xbc321bb5	-0.010870864
44	0x3b9735d1	0.0046145697
45	0x3aad5528	0.0013224231
46	0x3c81c055	0.015838781
47	0xbc5c2598	-0.013436697
48	0xbc5ba656	-0.013406357
49	0xb9743cc0	-0.00023292284
50	0xb96a9310	-0.00022370764
51	0xbc3444dc	-0.0110027455
52	0x3c5c9f52	0.013465719
53	0xbb8be48a	-0.0042691873
54	0xbc7eb7ea	-0.015546778
55	0xbb846fd4	-0.0040416513
56	0x3c85e0ca	0.01634254
57	0xbb928d2e	-0.0044723963
58	0x3b10096a	0.0021978267
59	0x3a7ff51e	0.00097640033
60	0x3a785420	0.0009472985
61	0x3c397420	0.01131919
62	0xb98b3fe0	-0.00026559737
63	0x3be2b046	0.006917986
64	0x3c08a01c	0.008338954
65	0x3b8b5371	0.0042518904
66	0x3c77aa57	0.015116296
67	0xbbf698cd	-0.0075255395
68	0xbbb8b3f4	-0.0056366865
69	0xbbc51ba2	-0.006015257
70	0x3c6acb4b	0.014330695
71	0x3c0c0e51	0.008548335
72	0x3bf35159	0.007425469
73	0x3cb6a1a9	0.022293882
74	0xbc1d88ae	-0.0096151065
75	0x3c7322bf	0.014839827
76	0xba4d852a	-0.00078399724
77	0xbcc2c171	-0.02377388
78	0x3c3f0c81	0.011660696
79	0x3bf3b4fa	0.0074373456
80	0xbb0d5a01	-0.002156854
81	0x3bc6112c	0.0060445275
82	0x3b862e5a	0.004094881
83	0xba6fe868	-0.00091517577
84	0xbc4746f2	-0.012162911
85	0xbc12942c	-0.00894646
86	0xba0f2188	-0.00054600136
87	0x3c497d34	0.012297917
88	0x3b6dab36	0.003626538
89	0x3c961c5c	0.01832407
90	0x3c3a1d68	0.01135955
91	0x3bb49dba	0.0055119665
92	0xbc35dfd1	-0.011100725
93	0x38dabae0	0.00010429858
94	0x3c254b54	0.01008876
95	0x3be259b1	0.0069076647
96	0xbc8f2301	-0.017472746
97	0x3b88d0dc	0.0041752886
98	0x3c52f203	0.012875083
99	0xbc3a814e	-0.011383368
100	0x3b826714	0.003979573
101	0xbc6a6522	-0.0143063385
102	0x3cf45e0e	0.029830005
103	0xbb07c966	-0.0020719408
104	0xbc1401bc	-0.009033617
105	0x3c80aba2	0.01570684
106	0xbbff2d5a	-0.0077873887
107	0xbb894051	-0.0041885753
108	0x3b4d57f8	0.003133295
109	0xbb435f68	-0.0029811505
110	0xbc831e46	-0.016005646
111	0xbc608640	-0.013703883
112	0x3bceafec	0.0063075926
113	0xbc5bbba3	-0.013411435
114	0x3d001127	0.031266358
115	0x3c02b57c	0.00797784
116	0xbca18bb4	-0.019719936
117	0xbb0bffeb	-0.0021362256
118	0x3c99fa36	0.018796068
119	0xbb051f4d	-0.0020312846
120	0x3c999445	0.018747458
121	0x3c6fc0ce	0.014633371
122	0x3bb2ad18	0.0054527633
123	0x3ba328c8	0.0049792267
124	0x3c32e50f	0.01091887
125	0x3c023eb2	0.007949518
126	0x3c9a2408	0.01881601
127	0x3c83fde9	0.016112285

model.1.running_var f4 [128]
0	0x3e8ca3f9	0.2746885
1	0x3e2f7ac6	0.17136678
2	0x3ef03189	0.46912792
3	0x3e9622f5	0.29323545
4	0x3ee00aec	0.43758333
5	0x3de89b0c	0.11357698
6	0x3e3784bb	0.17921726
7	0x3e7fb99f	0.24973153
8	0x3e8b8d2c	0.27256143
9	0x3d9bcc84	0.07607368
10	0x3e95c8b5	0.2925469
11	0x3eae8701	0.34087375
12	0x3f1164fb	0.5679471
13	0x3ed4ce6d	0.4156374
14	0x3eb1b992	0.3471189
15	0x3e6ffb97	0.23435818
16	0x3e9447da	0.28961068
17	0x3f11577e	0.5677413
18	0x3ebec06e	0.37256187
19	0x3edd3c0a	0.4320987
20	0x3e8a8c07	0.27059957
21	0x3ee3e408	0.44509912
22	0x3f39ecad	0.72626764
23	0x3f34efdf	0.70678514
24	0x3e5b90ec	0.21442002
25	0x3ec33052	0.38122803
26	0x3e844699	0.25835112
27	0x3ee5ef22	0.44909006
28	0x3e69aa21	0.22818805
29	0x3deccc36	0.11562388
30	0x3edebfdb	0.4350575
31	0x3ef8795a	0.48530084
32	0x3e5d7397	0.21626125
33	0x3ea4dd5a	0.32200128
34	0x3f0d9153	0.5529987
35	0x3ee27097	0.44226524
36	0x3f38c801	0.7218018
37	0x3ec4f0c5	0.38464943
38	0x3eb217da	0.34783822
39	0x3e37d065	0.1795059
40	0x3ec3018f	0.38087127
41	0x3e4e9cf2	0.20177057
42	0x3e0730bc	0.13202184
43	0x3eb7c0a3	0.35889158
44	0x3eb8e368	0.36110997
45	0x3eb18f90	0.34679842
46	0x3ea3214c	0.3186134
47	0x3ebc8ffe	0.36828607
48	0x3e4a9f29	0.19787277
49	0x3ebbb6ce	0.36662906
50	0x3dc34e67	0.095364384
51	0x3e47c33f	0.19508074
52	0x3e2781ee	0.16358158
53	0x3e3a61bc	0.18201345
54	0x3edc4c08	0.43026757
55	0x3ea0c619	0.31401137
56	0x3ed1e9aa	0.40998584
57	0x3e0db8c5	0.13840015
58	0x3eca0ebb	0.39464363
59	0x3ec2ec00	0.3807068
60	0x3eef9330	0.46791983
61	0x3e866b85	0.26253906
62	0x3ea26f32	0.3172546
63	0x3f02c843	0.51086825
64	0x3ee59ef0	0.44847822
65	0x3e9e4608	0.30912805
66	0x3f1c8aa6	0.6114906
67	0x3e033fee	0.12817356
68	0x3dd62d8a	0.10457905
69	0x3ee6938a	0.45034438
70	0x3e2eb04d	0.17059441
71	0x3e911890	0.28339052
72	0x3e9c3ec8	0.30516648
73	0x3ea2d170	0.31800413
74	0x3dffc451	0.12488616
75	0x3ef6f5c0	0.48234367
76	0x3e064b28	0.13114607
77	0x3e9d4b49	0.307215
78	0x3e815260	0.2525816
79	0x3e204840	0.15652561
80	0x3e63272a	0.22182909
81	0x3e58c187	0.21167575
82	0x3e5178f6	0.20456299
83	0x3e95d831	0.29266503
84	0x3e363478	0.17793453
85	0x3ebcdcf0	0.36887312
86	0x3d0fc198	0.035096735
87	0x3e92e319	0.28688887
88	0x3ebbae21	0.36656287
89	0x3f4156a3	0.7552282
90	0x3f1979a3	0.5995123
91	0x3ef6fec8	0.48241258
92	0x3e922c7c	0.28549564
93	0x3efd4db3	0.49473342
94	0x3ee63be8	0.4496758
95	0x3ebe04a7	0.37112924
96	0x3eec7af1	0.46187547
97	0x3e5d153f	0.21590136
98	0x3ea4e512	0.32206017
99	0x3e90784c	0.2821678
100	0x3e03611a	0.1283001
101	0x3eee8d05	0.46591964
102	0x3edfae39	0.4368761
103	0x3e091d10	0.13389993
104	0x3ebc2659	0.36748007
105	0x3f2a6777	0.66564125
106	0x3e58f96e	0.211889
107	0x3ea4ff5d	0.32226077
108	0x3ea6e572	0.32596928
109	0x3f16be44	0.5888407
110	0x3e97a22f	0.29615924
111	0x3e6fe0a0	0.23425531
112	0x3e9e63c7	0.309355
113	0x3eaba691	0.33525518
114	0x3ea11706	0.31462878
115	0x3e1e35d7	0.15450226
116	0x3ecc1028	0.39856076
117	0x3e5234fc	0.20528024
118	0x3e860d7e	0.2618217
119	0x3ed6f788	0.41985726
120	0x3f0772ee	0.52909744
121	0x3ed6eeec	0.41979158
122	0x3eb37dce	0.3505692
123	0x3f96c615	1.17792
124	0x3f17cb04	0.5929415
125	0x3ed291a9	0.41126755
126	0x3eb10e79	0.34581354
127	0x3e9b21e9	0.3029931

model.4.weight f4 [64, 128]
0	0x3cd44509	0.025911825
1	0xbdc0b60b	-0.09409722
2	0xbd59d39f	-0.053180333
3	0x3c6899b7	0.014196805
4	0x3c9f12ef	0.019418208
5	0x3d0ae197	0.033906545
6	0xbc6d8000	-0.01449585
7	0x3d13f530	0.0361225
8	0x3c95c7f6	0.018283825
9	0x3d64fe08	0.055906326
10	0xbdbbc197	-0.09167784
11	0x3cd4dee2	0.025985185
12	0xbbf46627	-0.0074584666
13	0x3df68fed	0.120391704
14	0xbd5e3994	-0.05425413
15	0xbddf9138	-0.1091637
16	0x3d8cc6c6	0.068738505
17	0x3d93ea79	0.072224565
18	0xbd600c17	-0.05469903
19	0xbd087635	-0.033315856
20	0x3cfb1d1b	0.030653527
21	0x3aa07a1b	0.0012243422
22	0xbd3cdffc	-0.046112046
23	0xbd15c4a5	-0.036564488
24	0xbc58deb0	-0.013236687
25	0x3cb33c13	0.021879232
26	0xbdd3c936	-0.10341112
27	0x3d44c73f	0.04804158
28	0xbd0815fa	-0.033224083
29	0xbd0e73d6	-0.03477844
30	0xbd973cd0	-0.07384646
31	0xbabe64bb	-0.001452587
32	0x3d156980	0.036477566
33	0xbd117522	-0.035512097
34	0xbae4633a	-0.0017424591
35	0xbd455b35	-0.048182685
36	0x3c041a3b	0.008062894
37	0x3cd5f4d9	0.026117729
38	0x3d98b4b3	0.07456341
39	0x3c59d114	0.013294477
40	0xbd9ff34a	-0.078100756
41	0x3d7bc6db	0.06146894
42	0x3d15dfe8	0.036590487
43	0x3ce4bd2f	0.027922241
44	0x3cf8e9c7	0.030384911
45	0x3cbd4a85	0.023106823
46	0x3d3230fb	0.043503743
47	0x3d54d5f4	0.051961854
48	0xbd038223	-0.03210653
49	0x3d12e8be	0.03586649
50	0x3c9e91aa	0.019356567
51	0xbcc2ce5a	-0.023780037
52	0xbcaf80f4	-0.021423794
53	0x3d4b59b0	0.04964608
54	0x3c82c31c	0.015962176
55	0xbd50ef71	-0.0510096
56	0x3d44dd37	0.04806253
57	0xbc016b70	-0.00789915
58	0x3d63a3ab	0.055576008
59	0x3cbec1e0	0.023285806
60	0x3d3793dd	0.044818748
61	0x3b1c75b6	0.0023873872
62	0x3da63cd4	0.08117071
63	0xbde0c9fa	-0.10976024
64	0x3cf74e14	0.030188598
65	0xbd956023	-0.07293727
66	0xbd8dff83	-0.069335006
67	0xbcd6bdf5	-0.026213625
68	0xbd8f4783	-0.06996062
69	0x3cffae1d	0.031210953
70	0x3cfb61ba	0.030686248
71	0x3d302f0d	0.04301362
72	0xbc592f72	-0.013255941
73	0xbdc3f862	-0.0956886
74	0x3d8349cc	0.0641056
75	0xbdd66ab4	-0.10469571
76	0xbd5d32b4	-0.054003432
77	0xbc60268f	-0.013681068
78	0xbd48472d	-0.048896004
79	0x3ccb64c2	0.024828319
80	0xbc9e08f8	-0.019291386
81	0xbd0d337d	-0.03447293
82	0xbd1e1d21	-0.038602
83	0x3c8f0448	0.017458096
84	0x3d82f8d0	0.063951135
85	0xbd1d2ba6	-0.038371705
86	0x3d78b0e2	0.060715564
87	0x3c4dab2b	0.012553017
88	0x3d3888c2	0.045052297
89	0xbdae0de5	-0.08498744
90	0xbdde199f	-0.108447306
91	0x387351c0	5.801185e-05
92	0xbb958d05	-0.00456393
93	0x3d4cabb0	0.04996842
94	0xbd791f21	-0.060820702
95	0xbd27036a	-0.04077474
96	0xbd1e617d	-0.03866719
97	0x3c77be76	0.015121093
98	0x3ca33446	0.019922387
99	0xbaf4cd46	-0.0018676899
100	0x3bf58ef9	0.0074938503
101	0x3d8505d0	0.06495249
102	0xbcb52041	-0.022110106
103	0x3d83e810	0.06440747
104	0xbda415aa	-0.080119446
105	0xbcb4cedb	-0.022071293
106	0x3c4a5572	0.012349473
107	0xbdb46446	-0.08808188
108	0xbc5960f2	-0.0132677425
109	0x3d71bb0c	0.059016272
110	0x3d5caf44	0.053878084
111	0x3cd4a43b	0.025957217
112	0x3bcabf20	0.0061873347
113	0x3b9cce0c	0.004785305
114	0x3d9a3975	0.0753049
115	0xbce84d54	-0.028357185
116	0xbd423870	-0.047417104
117	0x3dcd977b	0.10038658
118	0x3ce1361c	0.027491622
119	0xbd0b8b49	-0.03406838
120	0x3d33da5d	0.04390942
121	0x3cbb8395	0.022889892
122	0xbc9da261	-0.019242467
123	0xbd714fe1	-0.05891407
124	0xbc198eb0	-0.009372398
125	0xbb35a8eb	-0.002771909
126	0xbd17ff41	-0.037108663
127	0x3da2f188	0.07956225
128	0xbcaf2584	-0.021380194
129	0x3dc03835	0.09385721
130	0xbd5463f3	-0.05185313
131	0xbcc273ca	-0.023736853
132	0x3d08b204	0.033372894
133	0x3b4fa030	0.0031681173
134	0xbdaaa63e	-0.083324894
135	0x3d6dbc9a	0.058041193
136	0xbdc4c30f	-0.09607517
137	0xbc8e9af4	-0.017407872
138	0x3d04bbe6	0.032405756
139	0x3c748c69	0.0149260545
140	0xbd823653	-0.06358018
141	0x3bf81092	0.0075703347
142	0x3d928fad	0.0715631
143	0xbcb04d2c	-0.021521173
144	0xbda6a32f	-0.081365936
145	0x3cff6fa7	0.03118117
146	0x3d85f766	0.06541328
147	0xbcb72732	-0.022357557
148	0x3d91f13f	0.07126092
149	0x3d870cbd	0.065942265
150	0xbd9ed642	-0.0775571
151	0x3dfedd0e	0.124445066
152	0xbbdb7742	-0.0066975662
153	0xbbae0311	-0.005310424
154	0x3c4ea161	0.012611718
155	0x3d784aff	0.060618397
156	0xbc9a7beb	-0.018857917
157	0xbc3da821	-0.01157573
158	0xbcde030a	-0.027101059
159	0xbd0fba19	-0.035089586
160	0xbd0a108d	-0.03370719
161	0x3d0502e2	0.032473452
162	0xbcf12370	-0.029435843
163	0xbd9fb7ce	-0.0779873
164	0xbc002475	-0.007821192
165	0xbda90b87	-0.08254152
166	0xbe04f1b1	-0.12982823
167	0x3babde93	0.005245039
168	0xbc584bad	-0.013201636
169	0xbbfd094b	-0.007722055
170	0xbd362211	-0.044466082
171	0x3d6bb6e5	0.05754747
172	0xbdfcb06e	-0.12338339
173	0xbcf50d88	-0.029913679
174	0x3d86173c	0.065474
175	0x3d152384	0.036410823
176	0x3d5f1279	0.054460976
177	0xbdb34746	-0.08753829
178	0xbdd3ac75	-0.10335628
179	0x3c08d7a5	0.008352195
180	0xbbaa1c33	-0.00519135
181	0xbc93ee4d	-0.018057967
182	0x3cb87b10	0.022519618
183	0x3d8f307e	0.06991671
184	0xbd15ba4e	-0.036554627
185	0xbd5b729a	-0.05357609
186	0xbd00a74d	-0.03140955
187	0xbde66003	-0.112487815
188	0x3d76f4c0	0.060292006
189	0x3cb61201	0.022225382
190	0xbda86b9c	-0.0822365
191	0xbc1cdc57	-0.0095740175
192	0xbcb0a8f4	-0.021564938
193	0x3cf7565f	0.030192552
194	0xbd5ea1e1	-0.0543536
195	0x3d540fc2	0.05177284
196	0x3c11dd8d	0.0089029195
197	0xbc953f52	-0.01821867
198	0xbbd19a93	-0.0063966005
199	0xbca2dd76	-0.019880991
200	0x3c9cdeca	0.019149203
201	0xbd96b8e1	-0.073594816
202	0xbdb9e845	-0.09077505
203	0xbc32aaf4	-0.010905016
204	0x3cb900ce	0.022583392
205	0x3d4579a2	0.0482117
206	0x3d38f686	0.045156978
207	0xbd663acc	-0.056208417
208	0x3d1ae620	0.03781712
209	0x3c2531a0	0.010082632
210	0x3d91701f	0.071014635
211	0xbd6591b3	-0.056047153
212	0x3cb5a820	0.022174895
213	0xbcc60d83	-0.024176365
214	0x3cfacc1b	0.030614903
215	0xbde0c867	-0.10975724
216	0x3d493f48	0.049132615
217	0xbd8bf226	-0.068332955
218	0xbd2af3ac	-0.04173629
219	0xbb57f7e3	-0.0032954148
220	0x3d87a43f	0.06623124
221	0x3d14e248	0.03634861
222	0xbd934b90	-0.07192147
223	0xbb176c15	-0.0023105193
224	0x3d03eb4e	0.032206826
225	0x3d641c5b	0.055691104
226	0x3cd38e0d	0.025824571
227	0x3c4109fd	0.011782167
228	0x3d1c691a	0.03818617
229	0x3d9bc10e	0.07605182
230	0x3c7d7570	0.015469894
231	0xbad97181	-0.0016589613
232	0x3c71c8dc	0.014757361
233	0xbd1f3968	-0.038873106
234	0x3c66323e	0.014050065
235	0x3c478056	0.012176594
236	0x3d1f35cc	0.038869664
237	0xbd388ee7	-0.045058157
238	0xbd48035b	-0.048831325
239	0x3de73851	0.112900384
240	0x3c126088	0.008934148
241	0x3ccc9851	0.024974974
242	0xbcd94487	-0.026521934
243	0x3d3219a9	0.043481503
244	0x3dbe9d3c	0.09307334
245	0xbd7bb842	-0.06145502
246	0x3cf032b6	0.029321056
247	0x3c228357	0.009919009
248	0x3ddc8ec9	0.107694216
249	0xbc1a9ba8	-0.009436525
250	0xbc65f915	-0.014036437
251	0x3c2b8727	0.010469235
252	0xbd9e2923	-0.0772269
253	0xbd0532d0	-0.03251916
254	0xbbad3951	-0.0052863737
255	0xbd0cff16	-0.034422956

model.4.bias f4 [64]
0	0xb42b8cff	-1.597691e-07
1	0xb4af4209	-3.2644337e-07
2	0xb512d626	-5.4700865e-07
3	0x36850bd0	3.965084e-06
4	0xb644e8a6	-2.9341695e-06
5	0xb590cf8d	-1.0789241e-06
6	0xb5f12c06	-1.7968712e-06
7	0xb6cd2343	-6.113581e-06
8	0x36a140f4	4.8057354e-06
9	0xb6ec1e88	-7.0369024e-06
10	0xb59c056d	-1.1624485e-06
11	0xb5a26b4d	-1.2101169e-06
12	0xb5df4ffc	-1.6638073e-06
13	0x36b9fb7d	5.5427067e-06
14	0xb5072b58	-5.035449e-07
15	0xb60dbab5	-2.1119315e-06
16	0x34317fb8	1.6530873e-07
17	0xb6cdc925	-6.1328924e-06
18	0xb615554b	-2.2252377e-06
19	0xb3cc5de4	-9.516569e-08
20	0x35fa6efa	1.865875e-06
21	0x34bdca64	3.5351252e-07
22	0xb585478c	-9.930095e-07
23	0xb601fdca	-1.9370223e-06
24	0x35ba782a	1.3893052e-06
25	0xb5aa054d	-1.266753e-06
26	0xb69e7ae6	-4.723074e-06
27	0x3610840a	2.153453e-06
28	0xb4ca5c16	-3.7692433e-07
29	0xb47f7d18	-2.3794234e-07
30	0xb6542b0e	-3.1615523e-06
31	0xb5e6074e	-1.7138461e-06
32	0xb678c149	-3.7067387e-06
33	0x3439503e	1.725866e-07
34	0xb581ca84	-9.670189e-07
35	0xb6a13667	-4.804507e-06
36	0x35813ddd	9.629254e-07
37	0x34e78eea	4.3131087e-07
38	0x370c08c2	8.346689e-06
39	0xb420dda5	-1.4981795e-07
40	0xb6471440	-2.9665098e-06
41	0x3614ec43	2.219124e-06
42	0xb4c23a9a	-3.6177954e-07
43	0x3604871f	1.9748184e-06
44	0x36a09086	4.7851963e-06
45	0xb6eb98b4	-7.0213227e-06
46	0x355e674d	8.2851767e-07
47	0xb663f546	-3.3968404e-06
48	0xb6943cf3	-4.417839e-06
49	0xb59edf49	-1.1836902e-06
50	0xb66afc55	-3.5015594e-06
51	0x35be2acf	1.4168562e-06
52	0xb5091731	-5.1070225e-07
53	0xb6c14e26	-5.760946e-06
54	0xb6029415	-1.9457705e-06
55	0x3562f42b	8.454687e-07
56	0x364e6d5f	3.0760054e-06
57	0xb6480ca5	-2.9809682e-06
58	0x359fbe60	1.190183e-06
59	0xb5b3eef9	-1.340609e-06
60	0xb503d82e	-4.9115886e-07
61	0x36346fea	2.6887233e-06
62	0x356f2dc6	8.910105e-07
63	0x35f4a692	1.8227895e-06

model.5.weight f4 [64]
0	0x3f9c280d	1.2199723
1	0x3f99b3ad	1.2007958
2	0x3fa422fb	1.2823175
3	0x3fa14bdd	1.2601277
4	0x3fa3194f	1.2742099
5	0x3facab0e	1.3489702
6	0x3f96fb84	1.1795506
7	0x3f9b4053	1.2129005
8	0x3fa352e7	1.2759675
9	0x3fa37d8f	1.2772692
10	0x3f9a5546	1.2057273
11	0x3fa985df	1.3243979
12	0x3fa7875a	1.3088181
13	0x3fa52219	1.2901031
14	0x3fa896de	1.3171041
15	0x3f9c1a4c	1.2195525
16	0x3f9500cf	1.1640872
17	0x3fa5a400	1.2940674
18	0x3f9d087e	1.2268217
19	0x3f93f9d9	1.1560622
20	0x3f98768b	1.1911176
21	0x3fadbc9b	1.3573183
22	0x3fa845d2	1.3146307
23	0x3f9e64d2	1.2374518
24	0x3fa5a2c1	1.2940294
25	0x3fa061ca	1.2529843
26	0x3f9c5936	1.2214725
27	0x3fa20be8	1.2659883
28	0x3fa31a9b	1.2742494
29	0x3fa74be1	1.3070031
30	0x3fa92ab4	1.3216157
31	0x3f9d4c63	1.2288936
32	0x3f9f1286	1.2427528
33	0x3fb021a3	1.3760265
34	0x3f9aaabb	1.2083353
35	0x3f9d891a	1.2307465
36	0x3f9c86c9	1.2228633
37	0x3fa0a20b	1.2549452
38	0x3fa4b09f	1.28664
39	0x3f9a8e3b	1.2074655
40	0x3f9faa5e	1.2473867
41	0x3fa63d24	1.2987409
42	0x3f9dffa7	1.2343644
43	0x3fa4a787	1.2863625
44	0x3fa2a395	1.2706171
45	0x3faa200b	1.3291029
46	0x3f9b8cc0	1.2152328
47	0x3fa1adb1	1.2631131
48	0x3fab3ed7	1.3378552
49	0x3f9b7cbb	1.214744
50	0x3f9ff057	1.2495221
51	0x3fa286e8	1.269742
52	0x3fa066a4	1.2531323
53	0x3fa5c83b	1.295173
54	0x3f96b3cc	1.177362
55	0x3f96df30	1.1786861
56	0x3f9833eb	1.1890844
57	0x3f9ebb4b	1.2400907
58	0x3fa075b1	1.2535917
59	0x3f9ce4b8	1.22573
60	0x3f9b21f1	1.2119733
61	0x3fa3e2a4	1.280354
62	0x3fa0349e	1.2516057
63	0x3fa2af48	1.2709742

model.5.bias f4 [64]
0	0x3e0f086f	0.13968061
1	0x3e1d11d1	0.15338828
2	0x3e6ba173	0.23010807
3	0x3e31cdc4	0.1736365
4	0x3e4cbd5d	0.19994111
5	0x3e796f77	0.24358927
6	0x3e114654	0.14186984
7	0x3e17319d	0.1476502
8	0x3e681b67	0.22666703
9	0x3e152b8c	0.14567393
10	0x3dae55db	0.085124694
11	0x3e802c22	0.2503367
12	0x3e5ed32c	0.21760243
13	0x3e24d38c	0.16096324
14	0x3e2e3c97	0.170153
15	0x3de720bd	0.11285541
16	0x3d0fd727	0.035117295
17	0x3e4f64cd	0.20253296
18	0x3de5eb5e	0.11226533
19	0x3d62ab2b	0.05533902
20	0x3dfb77cf	0.12278711
21	0x3e8a7590	0.27042818
22	0x3e4a47ed	0.19754
23	0x3e2a2b0b	0.16617982
24	0x3e54e050	0.20788693
25	0x3e60d3f3	0.21955852
26	0x3e02cff8	0.12774646
27	0x3e32fc45	0.17479046
28	0x3e5bb784	0.21456724
29	0x3e82ee3f	0.25572392
30	0x3e5ca754	0.21548206
31	0x3e3aecd6	0.18254408
32	0x3e822e98	0.25426173
33	0x3e9b8b22	0.30379587
34	0x3e1d085e	0.15335223
35	0x3e0ee35e	0.13953921
36	0x3e195198	0.14972532
37	0x3e412f09	0.18865599
38	0x3e10ff43	0.14159875
39	0x3e20bfcc	0.15698165
40	0x3e2d904c	0.16949576
41	0x3e449ae0	0.19199705
42	0x3e4efdda	0.20214024
43	0x3e102253	0.14075594
44	0x3e6544f3	0.22389583
45	0x3e2c6998	0.16837156
46	0x3e33afe3	0.17547564
47	0x3e52dbd2	0.20591667
48	0x3e553200	0.20819855
49	0x3e0816e5	0.13289984
50	0x3e61206e	0.21985027
51	0x3e3603ca	0.17774883
52	0x3e20b3e6	0.15693626
53	0x3e586082	0.21130565
54	0x3e0198df	0.12655972
55	0x3e0ea364	0.13929516
56	0x3d1cf77d	0.03832196
57	0x3dcbfdc8	0.09960514
58	0x3e42866c	0.1899659
59	0x3e0a5e69	0.13512577
60	0x3d8ca738	0.06867832
61	0x3e385523	0.18001227
62	0x3e523553	0.20528154
63	0x3e23ff3f	0.16015337

model.5.running_mean f4 [64]
0	0xbdd3c3be	-0.10340069
1	0xbe4415c8	-0.19148934
2	0xbea0df52	-0.3142038
3	0xbec4ab9a	-0.38412172
4	0xbe527a0e	-0.20554373
5	0xbf4134a7	-0.75470966
6	0xbe22dfaa	-0.15905634
7	0xbebc015d	-0.3671979
8	0xbf359cd4	-0.70942426
9	0xbeed1e86	-0.4631235
10	0xbdba905a	-0.09109564
11	0xbeee4ab7	-0.46541378
12	0xbedbbe22	-0.42918497
13	0xbee429bc	-0.4456309
14	0x3e5f260c	0.21791857
15	0xbf1d0cc8	-0.6134763
16	0x3d6d7032	0.057968326
17	0xbee684d6	-0.4502322
18	0x3ef21e4c	0.4728874
19	0xbe7e5b08	-0.24839413
20	0xbf2a22cb	-0.6645934
21	0xbe956de5	-0.29185405
22	0xbeac1ada	-0.33614236
23	0xbdbf40a9	-0.09338505
24	0xbf5eeaed	-0.8707722
25	0xbf2088d4	-0.62708783
26	0xbed3ce57	-0.41368362
27	0xbf2f12b5	-0.6838792
28	0xbeb043f3	-0.3442684
29	0xbe08abbf	-0.13346766
30	0xbf39a13b	-0.72511643
31	0x3ce10a46	0.02747072
32	0xbf6957fa	-0.91149867
33	0xbea06b1e	-0.31331724
34	0x3eaf80d6	0.34277982
35	0x3ec2e2e0	0.38063717
36	0xbe62fe8a	-0.22167411
37	0xbe9b4c88	-0.30331826
38	0xbe9b8a6b	-0.30379042
39	0xbdd71fe8	-0.105041325
40	0xbec7c3c1	-0.39016536
41	0xbf422d39	-0.75850254
42	0x3cbb5cac	0.022871338
43	0xbd8f3b78	-0.06993765
44	0xbeb3d69d	-0.35124674
45	0x3f24506c	0.64185214
46	0xbe64546a	-0.22297826
47	0xbeb79d71	-0.35862306
48	0xbf65dfa8	-0.897944
49	0xbde59d80	-0.11211681
50	0xbf2a36b8	-0.66489744
51	0xbec1f326	-0.3788082
52	0xbeeb3e5b	-0.4594601
53	0xbef83e52	-0.48485047
54	0xbe6416fc	-0.22274393
55	0xbd9fe187	-0.07806688
56	0x3d64c4ca	0.055851735
57	0x3da93745	0.08262495
58	0xbeaa6a99	-0.33284453
59	0xbda4191c	-0.08012602
60	0xbc8d3120	-0.017235339
61	0x3ed0f3fa	0.4081114
62	0xbef4b75c	-0.47796142
63	0xbf0c1209	-0.5471502

model.5.running_var f4 [64]
0	0x3f95f4c9	1.1715328
1	0x3fc383c7	1.527459
2	0x3fd8ab6d	1.6927315
3	0x3fa01bce	1.2508485
4	0x3fbbf0cd	1.4682862
5	0x3fbb3c2c	1.4627738
6	0x3f9fb433	1.2476867
7	0x3f936e26	1.151799
8	0x3fb4c9fb	1.412414
9	0x3fa086e4	1.2541165
10	0x3f923954	1.1423745
11	0x3fd1fa09	1.640443
12	0x3fde29bb	1.7356485
13	0x3fc4e552	1.5382483
14	0x3fb22dd5	1.3920237
15	0x3fd2a0b6	1.6455295
16	0x3f98c66f	1.1935557
17	0x3f9d2065	1.2275511
18	0x3fa51bde	1.2899129
19	0x3f80eb62	1.0071833
20	0x3f9997db	1.1999468
21	0x3fe817be	1.8132246
22	0x400bc9a7	2.184183
23	0x3fb97903	1.4490055
24	0x3fd1be28	1.6386156
25	0x3fb82d56	1.4388835
26	0x3f8c9a3f	1.0984572
27	0x3fbfb37b	1.4976648
28	0x3fd28e20	1.6449623
29	0x3f8e16e0	1.1100731
30	0x3f9e4593	1.2364982
31	0x3fbfe0e1	1.4990503
32	0x3f803878	1.0017233
33	0x3fbc144c	1.4693694
34	0x3f89ea0f	1.0774554
35	0x3f9b9b32	1.2156737
36	0x3f81c7ae	1.0139062
37	0x3fe73f16	1.8066127
38	0x3f8bc055	1.091807
39	0x3fadbf1c	1.3573947
40	0x3f94eb9f	1.1634406
41	0x3f99acee	1.2005899
42	0x3fb4070a	1.4064648
43	0x3fda3326	1.7046859
44	0x3fb09820	1.3796425
45	0x3fd13aaa	1.6346028
46	0x3fd3ef2d	1.6557366
47	0x3fcc6fd8	1.5971632
48	0x3fdd8d72	1.7308791
49	0x3fb355f9	1.4010612
50	0x3fc8432f	1.5645503
51	0x3fccc694	1.5998101
52	0x3f8b2c08	1.0872812
53	0x3fdad292	1.7095511
54	0x3fad292e	1.3528192
55	0x3f9ca06a	1.2236454
56	0x3fa80233	1.3125671
57	0x3f968f26	1.1762435
58	0x3fb04b98	1.3773069
59	0x3fc99d38	1.5751104
60	0x3f98d41c	1.1939731
61	0x3fa1aa49	1.2630092
62	0x3fe05cbf	1.7528304
63	0x3fca37c1	1.5798265

model.8.weight f4 [5, 64]
0	0xbd6c8e5e	-0.05775296
1	0xbe1baf3e	-0.15203568
2	0x3e80c033	0.25146636
3	0x3d5f2ce0	0.054486156
4	0xbe7d6967	-0.24747239
5	0xbd3e9dbf	-0.046537157
6	0x3e01a4c9	0.12660517
7	0xbe4422c7	-0.19153892
8	0xbe98a0f8	-0.2981031
9	0xbdb8cbb0	-0.09023225
10	0xbda7a450	-0.08185637
11	0xbd8ad480	-0.067788124
12	0xbdf38dd9	-0.1189229
13	0xbe558eaa	-0.20855203
14	0xbe502f0f	-0.20330451
15	0xbe272077	-0.16320978
16	0xbdf36f18	-0.11886424
17	0xbd804f98	-0.06265181
18	0x3e87934a	0.2647956
19	0xbdc303b6	-0.09522192
20	0xbd719aba	-0.05898545
21	0x3e5a2f40	0.21307087
22	0x3e8a960c	0.27067602
23	0xbe6a2c5f	-0.22868489
24	0xbd9cf122	-0.0766318
25	0xbe7dafee	-0.24774143
26	0xbe88ec28	-0.26742673
27	0xbe67b8b6	-0.22629055
28	0xbe438436	-0.19093403
29	0x3e6035fb	0.21895592
30	0xbe0a0e50	-0.13482022
31	0x3e94f8a1	0.2909594
32	0xbe6db458	-0.23213327
33	0x3e4d456f	0.20046018
34	0x3e867b36	0.26265877
35	0x3e95f733	0.2929016
36	0x3ca15ba5	0.01969702
37	0x3e477358	0.19477594
38	0xba7a0067	-0.0009536803
39	0xbdef1fab	-0.11675962
40	0xbe045a63	-0.12925105
41	0xbe8da23a	-0.27662832
42	0xbd6ee847	-0.058326986
43	0x3d9ae673	0.07563486
44	0x3e45a956	0.19302878
45	0x3e8588de	0.26080984
46	0x3e698662	0.22805169
47	0x3e2de503	0.16981892
48	0xbe156673	-0.14589863
49	0xbe14c121	-0.14526798
50	0xbe7d1625	-0.24715479
51	0xbe1516cb	-0.14559476
52	0xbe7b9aec	-0.24570817
53	0xbdde5ca9	-0.10857517
54	0xbe150e6d	-0.14556284
55	0xbbff03c7	-0.0077824327
56	0xbdd942f0	-0.106084704
57	0xbe31f03a	-0.17376795
58	0x3e7b3e6d	0.24535532
59	0xbe319f3d	-0.17345901
60	0x3c431077	0.011905781
61	0x3e950360	0.29104137
62	0xbe53432b	-0.20631091
63	0xbe713664	-0.23555905
64	0xbd9aa119	-0.07550258
65	0x3d45ca8a	0.04828886
66	0x3e30787c	0.17233461
67	0xbe0f49cd	-0.13992997
68	0xbda489f0	-0.08034122
69	0x3e54561b	0.20735972
70	0x3e8646ea	0.26225978
71	0x3e5b1229	0.21393646
72	0xbe18ac3d	-0.14909454
73	0x3e6b0945	0.22952755
74	0x3e644529	0.22292008
75	0xbe10b1e6	-0.14130363
76	0xbe79f57b	-0.2441005
77	0x3e034478	0.12819088
78	0xbe028e16	-0.12749514
79	0x3e1cbcdc	0.15306419
80	0xbd825720	-0.06364274
81	0x3d361de5	0.044462103
82	0xbe5578ca	-0.20846859
83	0x3e89b398	0.26894832
84	0x3e51d468	0.20491183
85	0x3e70395f	0.23459385
86	0xbe11fcf3	-0.14256649
87	0xbe085b14	-0.13315994
88	0xbe024e01	-0.12725069
89	0xbe5271cc	-0.20551223
90	0x3e3f7521	0.18697025
91	0xbe2fa58e	-0.17152998
92	0x3e3e0cf3	0.18559627
93	0xbe320034	-0.1738289
94	0xbd04d5d1	-0.032430474
95	0xbde7bab6	-0.11314909
96	0xbe9455f2	-0.2897182
97	0xbe1712f8	-0.1475333
98	0xbe561d4b	-0.20909612
99	0xbe0a39aa	-0.1349856
100	0x3e633f96	0.22192225
101	0xbe814fb2	-0.25256115
102	0x3e89e7b5	0.2693459
103	0x3d3e4720	0.04645455
104	0xbe61cefb	-0.22051613
105	0xbe3b5421	-0.18293811
106	0xbe841240	-0.25795174
107	0xbe0104b3	-0.12599449
108	0xbe450bdd	-0.19242807
109	0xbc768881	-0.0150471935
110	0xbe4e84e7	-0.20167886
111	0xbe745861	-0.23861839
112	0xbe362502	-0.17787555
113	0xbe0b52c0	-0.13605785
114	0x3e25b096	0.16180643
115	0xbe47e7b7	-0.19521986
116	0x3e7c169f	0.24618004
117	0xbe6681c0	-0.22510433
118	0xbdcfc19a	-0.101443484
119	0xbe779b1f	-0.24180268
120	0xbd886764	-0.06660345
121	0xbdd02e5d	-0.10165093
122	0xbe668e4b	-0.22515218
123	0xbc853e47	-0.016265048
124	0xbe3c0ad2	-0.18363503
125	0xbdcbea9b	-0.09956857
126	0xbdfd83e7	-0.12378674
127	0x3e068c18	0.13139379
128	0x3e854d38	0.26035476
129	0xbe0d4551	-0.13795973
130	0xbda5cfcb	-0.08096274
131	0x3e7d46af	0.24733995
132	0xbe3d00a7	-0.1845728
133	0x3e808835	0.25103918
134	0xbda0f50e	-0.078592405
135	0xbe517624	-0.20455223
136	0x3e8b35a5	0.27189365
137	0xbe58e494	-0.21180946
138	0xbe1b7cdc	-0.15184349
139	0x3e7ea3c8	0.24867165
140	0xbdf829d7	-0.12117355
141	0xbe8508ae	-0.25983185
142	0xbe3f5010	-0.18682885
143	0xbe728af9	-0.23685826
144	0xbe149a93	-0.1451209
145	0x3e9a9a86	0.30196017
146	0xbdb0556c	-0.08610043
147	0xbc831275	-0.016000012
148	0xbe2c1039	-0.16803063
149	0xbe2a54bf	-0.1663389
150	0xbd52a3a9	-0.05142561
151	0xbe1bf6ce	-0.15230867
152	0x3e94b98a	0.29047805
153	0x3e43afac	0.19109982
154	0xbded54ac	-0.115884155
155	0x3e4ebac2	0.2018843
156	0xbdd59900	-0.10429573
157	0xbd87911f	-0.066194765
158	0x3e732eb8	0.2374829
159	0xbe4e5aa1	-0.2015176
160	0x3d8eca41	0.069721706
161	0xbe66c764	-0.22536999
162	0xbe14a046	-0.14514264
163	0xbdc6324a	-0.096775606
164	0xbe23a12e	-0.15979454
165	0xbe6830da	-0.22674885
166	0xbe696eea	-0.22796217
167	0xbe221d0b	-0.15831392
168	0x3e781871	0.24228074
169	0x3e170fcf	0.14752124
170	0xbda21707	-0.07914548
171	0xbe8529bb	-0.260084
172	0x3dfdda68	0.12395173
173	0xbda054a4	-0.07828644
174	0xbe97e376	-0.29665726
175	0x3e832233	0.2561203
176	0x3e1becf9	0.15227117
177	0x3e19f069	0.15033115
178	0xbe0735d3	-0.13204126
179	0xbde0ffc8	-0.109862864
180	0xbe1ebb5e	-0.15501162
181	0xbe77a124	-0.24182564
182	0x3e541435	0.20710833
183	0xbe744429	-0.23854126
184	0xbe840c18	-0.25790477
185	0xbdd7d40b	-0.10538491
186	0xbeab4de1	-0.33457854
187	0xbe8df24f	-0.2772393
188	0xbe08b413	-0.13349943
189	0xbe63b5b2	-0.2223728
190	0x3e4b879d	0.19875951
191	0xbe886d6b	-0.2664598
192	0xbe3f8f70	-0.18707061
193	0xbe640b66	-0.22269973
194	0xbe78a1c1	-0.24280454
195	0xbe8c150e	-0.27359813
196	0x3de144d2	0.109994546
197	0xbe8ae975	-0.2713124
198	0xbd6d8f93	-0.05799825
199	0xbe5fa596	-0.2184051
200	0x3dd39357	0.10330837
201	0x3e271333	0.16315918
202	0xbda3f5b0	-0.080058455
203	0xbdedc312	-0.11609472
204	0x3d869f75	0.06573383
205	0x3e28c8e7	0.16482888
206	0xbdd0a3f1	-0.10187519
207	0x3e40175a	0.18758908
208	0x3e891b7f	0.2677879
209	0xbe277d67	-0.16356431
210	0xbe62a59f	-0.22133492
211	0xbc0d7b06	-0.008635288
212	0x3d9c3eb3	0.076291464
213	0xbe5ed0d0	-0.21759343
214	0x3e352665	0.17690428
215	0x3d10507f	0.035233017
216	0x3e37cc23	0.17948966
217	0x3dd29d81	0.10283948
218	0xbdbef103	-0.09323313
219	0x3e3aa247	0.18225966
220	0xbe41292f	-0.18863367
221	0xbe65180c	-0.22372454
222	0x3e688fa7	0.22711049
223	0x3db52c28	0.08846313
224	0x3d58387a	0.052788235
225	0xbe3a7540	-0.1820879
226	0x3ccea219	0.025223779
227	0xbe586461	-0.21132042
228	0xbe30aa74	-0.17252523
229	0x3dd7dcaa	0.10540135
230	0xbcd03e49	-0.025420325
231	0xbe570893	-0.20999365
232	0xbd069460	-0.032856345
233	0x3e26476a	0.1623818
234	0x3d34cc02	0.04413987
235	0x3e1967dd	0.14981027
236	0xbe9447dd	-0.28961077
237	0xbd83f585	-0.064433135
238	0x3e728803	0.23684697
239	0xbe986fb2	-0.29772717
240	0x3e03aa6b	0.12857978
241	0xbe603973	-0.21896915
242	0xbe4e371a	-0.20138207
243	0x3e6314f4	0.22175962
244	0x3dbd0771	0.09229935
245	0x3df807d2	0.121108666
246	0xbe7c10cb	-0.24615781
247	0xbe4e8738	-0.2016877
248	0x3e6a3577	0.22871958
249	0x3e79403e	0.24340913
250	0x3dfc718b	0.12326344
251	0xbdb9d889	-0.09074504
252	0x3e5da852	0.2164624
253	0x3c59a288	0.013283379
254	0xbe5d75df	-0.21626996
255	0x3e1f1aa3	0.15537505

model.8.bias f4 [5]
0	0xbd875475	-0.06607906
1	0x3d36bd55	0.044614155
2	0x39e34805	0.00043350473
3	0xbe4b1cd6	-0.19835219
4	0x3e08b32f	0.13349603
